…
":"https://localhost:8080/"},"id":"DmRo5g2gozwT","executionInfo":{"status":"ok","timestamp":1716313212069,"user_tz":-540,"elapsed":34004,"user":{"displayName":"A A","userId":"01071460355606733188"}},"outputId":"c2518f6c-ae11-4b68-ead3-4ee6403b59cc"},"execution_count":null,"outputs":[{"output_type":"stream","name":"stdout","text":["Model: \"sequential_6\"\n","_________________________________________________________________\n"," Layer (type)                Output Shape              Param #   \n","=================================================================\n"," conv2d_21 (Conv2D)          (None, 254, 254, 32)      320       \n","                                                                 \n"," max_pooling2d_21 (MaxPooli  (None, 127, 127, 32)      0         \n"," ng2D)                                                           \n","                                                                 \n"," conv2d_22 (Conv2D)          (None, 125, 125, 32)      9248      \n","                                                                 \n"," max_pooling2d_22 (MaxPooli  (None, 62, 62, 32)        0         \n"," ng2D)                                                           \n","                                                                 \n"," conv2d_23 (Conv2D)          (None, 60, 60, 64)        18496     \n","                                                                 \n"," max_pooling2d_23 (MaxPooli  (None, 30, 30, 64)        0         \n"," ng2D)                                                           \n","                                                                 \n"," conv2d_24 (Conv2D)          (None, 28, 28, 128)       73856     \n","                                                                 \n"," max_pooling2d_24 (MaxPooli  (None, 14, 14, 128)       0         \n"," ng2D)                                                           \n","                                                                 \n"," flatten_6 (Flatten)         (None, 25088)             0         \n","                                                                 \n"," dense_12 (Dense)            (None, 128)               3211392   \n","                                                                 \n"," dense_13 (Dense)            (None, 8)                 1032      \n","                                                                 \n","=================================================================\n","Total params: 3314344 (12.64 MB)\n","Trainable params: 3314344 (12.64 MB)\n","Non-trainable params: 0 (0.00 Byte)\n","_________________________________________________________________\n"]}]},{"cell_type":"code","source":[],"metadata":{"id":"OjXyIwlZ
…
i":"https://localhost:8080/"},"id":"aSucn9xwYiUr","executionInfo":{"status":"ok","timestamp":1716368647283,"user_tz":-540,"elapsed":1605,"user":{"displayName":"A A","userId":"01071460355606733188"}},"outputId":"7f3488bb-7835-41c6-ccb3-1e85d7913b68"},"execution_count":null,"outputs":[{"output_type":"stream","name":"stdout","text":["Model: \"sequential_3\"\n","_________________________________________________________________\n"," Layer (type)                Output Shape              Param #   \n","=================================================================\n"," conv2d_12 (Conv2D)          (None, 254, 254, 32)      320       \n","                                                                 \n"," max_pooling2d_12 (MaxPooli  (None, 127, 127, 32)      0         \n"," ng2D)                                                           \n","                                                                 \n"," conv2d_13 (Conv2D)          (None, 125, 125, 32)      9248      \n","                                                                 \n"," max_pooling2d_13 (MaxPooli  (None, 62, 62, 32)        0         \n"," ng2D)                                                           \n","                                                                 \n"," conv2d_14 (Conv2D)          (None, 60, 60, 64)        18496     \n","                                                                 \n"," max_pooling2d_14 (MaxPooli  (None, 30, 30, 64)        0         \n"," ng2D)                                                           \n","                                                                 \n"," flatten_3 (Flatten)         (None, 57600)             0         \n","                                                                 \n"," dense_6 (Dense)             (None, 128)               7372928   \n","                                                                 \n"," dropout_2 (Dropout)         (None, 128)               0         \n","                                                                 \n"," dense_7 (Dense)             (None, 8)                 1032      \n","                                                                 \n","=================================================================\n","Total params: 7402024 (28.24 MB)\n","Trainable params: 7402024 (28.24 MB)\n","Non-trainable params: 0 (0.00 Byte)\n","_________________________________________________________________\n"]}]},{"cell_type":"code","source":["# EarlyStopping 콜백 정의\n","e
…
